…
number of samples: 525890
Finished loading train dataset: 5401929 samples
Loading from: GBM
number of samples: 246020
Loading from: LUSC
number of samples: 146363
Loading from: KICH
number of samples: 53648
Loading from: LGG
number of samples: 198338
Loading from: LUAD
number of samples: 181627
Loading from: KIRC
number of samples: 180673
Loading from: KIRP
number of samples: 107977
Finished loading valid dataset: 1114646 samples
Class encoding:
{'GBM': 0, 'KICH': 1, 'KIRC': 2, 'KIRP': 3, 'LGG': 4, 'LUAD': 5, 'LUSC': 6}
Initialization method not found, defaulting to normal
cancer_CNN(
  (conv1): BasicConv2d(
    (conv): Conv2d(3, 16, kernel_size=(5, 5), stride=(2, 2), padding=(1, 1))
    (bn): BatchNorm2d(16, eps=0.001, momentum=0.1, affine=True, track_running_stats=True)
    (relu): ReLU()
    (dropout): Dropout(p=0.1)
  )
  (conv2): BasicConv2d(
    (conv): Conv2d(16, 32, kernel_size=(3, 3), stride=(1, 1))
    (bn): BatchNorm2d(32, eps=0.001, momentum=0.1, affine=True, track_running_stats=True)
    (relu): ReLU()
    (dropout): Dropout(p=0.1)
  )
  (conv3): BasicConv2d(
    (conv): Conv2d(32, 64, kernel_size=(3, 3), stride=(1, 1), padding=(1, 1))
    (bn): BatchNorm2d(64, eps=0.001, momentum=0.1, affine=True, track_running_stats=True)
    (relu): ReLU()
    (dropout): Dropout(p=0.1)
  )
  (conv4): BasicConv2d(
    (conv): Conv2d(64, 64, kernel_size=(3, 3), stride=(1, 1), padding=(1, 1))
    (bn): BatchNorm2d(64, eps=0.001, momentum=0.1, affine=True, track_running_stats=True)
    (relu): ReLU()
    (dropout): Dropout(p=0.1)
  )
  (conv5): BasicConv2d(
    (conv): Conv2d(64, 128, kernel_size=(3, 3), stride=(1, 1), padding=(1, 1))
    (bn): BatchNorm2d(128, eps=0.001, momentum=0.1, affine=True, track_running_stats=True)
    (relu): ReLU()
    (dropout): Dropout(p=0.1)
  )
  (conv6): BasicConv2d(
    (conv): Conv2d(128, 64, kernel_size=(3, 3), stride=(1, 1), padding=(1, 1))
    (bn): BatchNorm2d(64, eps=0.001, momentum=0.1, affine=True, track_running_stats=True)
    (relu): ReLU()
    (dropout): Dropout(p=0.1)
  )
  (linear): Linear(in_features=5184, out_features=7, bias=True)
)
No early stopping implemented
Starting training
[0/25][1/168811] Training Loss: 1.934955
[0/25][2/168811] Training Loss: 1.943679
[0/25][3/168811] Training Loss: 1.850439
[0/25][4/168811] Training Loss: 1.977766
[0/25][5/168811] Training Loss: 1.907061
[0/25][6/168811] Training Loss: 1.763391
[0/25][7/168811] Training Loss: 2.354338
[0/25][8/168811] Training Loss: 2.184221
…
