…
Random Seed:  149
Loading from: Solid_Tissue_Normal
number of samples: 73015
Loading from: TCGA-LUSC
number of samples: 204134
Loading from: TCGA-LUAD
number of samples: 186044
Finished loading train dataset: 463193 samples
Loading from: Solid_Tissue_Normal
number of samples: 13542
Loading from: TCGA-LUSC
number of samples: 50047
Loading from: TCGA-LUAD
number of samples: 41918
Finished loading valid dataset: 105507 samples
Class encoding:
{'Solid_Tissue_Normal': 0, 'TCGA-LUAD': 1, 'TCGA-LUSC': 2}
Initialization method not found, defaulting to normal
cancer_CNN(
  (conv1): BasicConv2d(
    (conv): Conv2d(3, 16, kernel_size=(5, 5), stride=(2, 2), padding=(1, 1))
    (bn): BatchNorm2d(16, eps=0.001, momentum=0.1, affine=True, track_running_stats=True)
    (relu): ReLU()
    (dropout): Dropout(p=0.1)
  )
  (conv2): BasicConv2d(
    (conv): Conv2d(16, 32, kernel_size=(3, 3), stride=(1, 1))
    (bn): BatchNorm2d(32, eps=0.001, momentum=0.1, affine=True, track_running_stats=True)
    (relu): ReLU()
    (dropout): Dropout(p=0.1)
  )
  (conv3): BasicConv2d(
    (conv): Conv2d(32, 64, kernel_size=(3, 3), stride=(1, 1), padding=(1, 1))
    (bn): BatchNorm2d(64, eps=0.001, momentum=0.1, affine=True, track_running_stats=True)
    (relu): ReLU()
    (dropout): Dropout(p=0.1)
  )
  (conv4): BasicConv2d(
    (conv): Conv2d(64, 64, kernel_size=(3, 3), stride=(1, 1), padding=(1, 1))
    (bn): BatchNorm2d(64, eps=0.001, momentum=0.1, affine=True, track_running_stats=True)
    (relu): ReLU()
    (dropout): Dropout(p=0.1)
  )
  (conv5): BasicConv2d(
    (conv): Conv2d(64, 128, kernel_size=(3, 3), stride=(1, 1), padding=(1, 1))
    (bn): BatchNorm2d(128, eps=0.001, momentum=0.1, affine=True, track_running_stats=True)
    (relu): ReLU()
    (dropout): Dropout(p=0.1)
  )
  (conv6): BasicConv2d(
    (conv): Conv2d(128, 64, kernel_size=(3, 3), stride=(1, 1), padding=(1, 1))
    (bn): BatchNorm2d(64, eps=0.001, momentum=0.1, affine=True, track_running_stats=True)
    (relu): ReLU()
    (dropout): Dropout(p=0.1)
  )
  (linear): Linear(in_features=5184, out_features=3, bias=True)
)
No early stopping implemented
Starting training
1562080198.0274913
[0/25][1/14475] Training Loss: 1.102123
[0/25][2/14475] Training Loss: 1.189868
[0/25][3/14475] Training Loss: 1.121055
[0/25][4/14475] Training Loss: 1.098230
[0/25][5/14475] Training Loss: 1.226649
[0/25][6/14475] Training Loss: 1.067052
[0/25][7/14475] Training Loss: 1.152749
[0/25][8/14475] Training Loss: 1.086821
…
